2024-07-31,12:51:55 | INFO | Running with a single process. Device cuda:0.
2024-07-31,12:51:55 | INFO | Loaded ViT-B-32 model config.
2024-07-31,12:52:06 | INFO | Loading pretrained ViT-B-32 weights (laion400m_e32).
2024-07-31,12:52:07 | INFO | Model:
2024-07-31,12:52:07 | INFO | CLIP(
  (visual): VisionTransformer(
    (conv1): Conv2d(3, 768, kernel_size=(32, 32), stride=(32, 32), bias=False)
    (patch_dropout): Identity()
    (ln_pre): LayerNorm((768,), eps=1e-05, elementwise_affine=True)
    (transformer): Transformer(
      (resblocks): ModuleList(
        (0-11): 12 x ResidualAttentionBlock(
          (ln_1): LayerNorm((768,), eps=1e-05, elementwise_affine=True)
          (attn): MultiheadAttention(
            (out_proj): NonDynamicallyQuantizableLinear(in_features=768, out_features=768, bias=True)
          )
          (ls_1): Identity()
          (ln_2): LayerNorm((768,), eps=1e-05, elementwise_affine=True)
          (mlp): Sequential(
            (c_fc): Linear(in_features=768, out_features=3072, bias=True)
            (gelu): GELU(approximate='none')
            (c_proj): Linear(in_features=3072, out_features=768, bias=True)
          )
          (ls_2): Identity()
        )
      )
    )
    (ln_post): LayerNorm((768,), eps=1e-05, elementwise_affine=True)
  )
  (transformer): Transformer(
    (resblocks): ModuleList(
      (0-11): 12 x ResidualAttentionBlock(
        (ln_1): LayerNorm((512,), eps=1e-05, elementwise_affine=True)
        (attn): MultiheadAttention(
          (out_proj): NonDynamicallyQuantizableLinear(in_features=512, out_features=512, bias=True)
        )
        (ls_1): Identity()
        (ln_2): LayerNorm((512,), eps=1e-05, elementwise_affine=True)
        (mlp): Sequential(
          (c_fc): Linear(in_features=512, out_features=2048, bias=True)
          (gelu): GELU(approximate='none')
          (c_proj): Linear(in_features=2048, out_features=512, bias=True)
        )
        (ls_2): Identity()
      )
    )
  )
  (token_embedding): Embedding(49408, 512)
  (ln_final): LayerNorm((512,), eps=1e-05, elementwise_affine=True)
)
2024-07-31,12:52:07 | INFO | Params:
2024-07-31,12:52:07 | INFO |   accum_freq: 1
2024-07-31,12:52:07 | INFO |   aug_cfg: {}
2024-07-31,12:52:07 | INFO |   batch_size: 16
2024-07-31,12:52:07 | INFO |   beta1: 0.9
2024-07-31,12:52:07 | INFO |   beta2: 0.98
2024-07-31,12:52:07 | INFO |   celeb_name: Elon_Musk
2024-07-31,12:52:07 | INFO |   checkpoint_path: clip/ckpt/2024_07_31-12_51_55-model_ViT-B-32-lr_1e-05-b_16-j_1-p_fp32/checkpoints
…
